project3/AdultCensusIncomeNet.pt (torch, 6445 bytes, 3 tensors)

hidden.weight f4 [78, 13]
000000 8e ca 34 3d 62 47 00 3e 06 a8 39 3e 1e b8 98 be
       0.044138484 0.1252723 0.18130502 -0.2982797
000010 fd 63 53 3e 15 99 c5 bd 30 a8 70 be 0b 2d 2d be
       0.20643611 -0.09648339 -0.23501658 -0.16911714
000020 15 13 97 3e 25 d5 60 be 5b e6 26 3f 7d 06 9c 3e
       0.29506746 -0.21956308 0.65195245 0.304737
000030 26 84 16 3b 0c eb 1d be 2c 95 9c bd a2 bc 38 3d
       0.002296695 -0.15421695 -0.0764564 0.04510177
000040 96 c1 4d 3c 4b 31 f0 bd 47 eb 2e bd 75 55 c3 3e
       0.0125583615 -0.11728152 -0.042704847 0.38151136
000050 e4 08 4f 3e a6 03 7b 3c 9d 46 e1 bc b2 6c 98 be
       0.20218235 0.015320694 -0.027499491 -0.29770428
000060 ab f4 32 be a8 d0 c6 bd 86 55 8d bc 69 ac 05 3d
       -0.17476146 -0.09707767 -0.017252695 0.032635126
000070 37 7d 79 3e f5 26 e4 be 88 4d ac 3d 08 5f c3 bd
       0.24364172 -0.44560972 0.084132254 -0.0953961
000080 1f 83 6b 3d c8 3b c4 be 65 ef 2a bc 66 14 3e be
       0.057498094 -0.3832686 -0.010433053 -0.18562469
000090 19 49 88 be 67 92 39 3e 0b 36 8d bd 32 1b 5b 3d
       -0.2661827 0.18122254 -0.068950735 0.053492732
0000a0 2d 92 dd bd 84 5f 15 3d 46 c1 38 3e d5 65 79 3e
       -0.108188964 0.036468044 0.18042478 0.24355252
0000b0 e4 f4 80 3e f4 e6 d4 3d 14 43 41 be 19 c3 c5 be
       0.25186837 0.10395613 -0.18873245 -0.3862541
0000c0 65 b6 e4 3f b2 70 10 bf f3 2e 55 3e 33 77 05 3e
       1.7868162 -0.5642196 0.20818691 0.13033752
0000d0 8e bf 95 3e 2a 12 06 3c ff 67 09 3d 2b c2 5b bd
       0.29247707 0.008183042 0.033546444 -0.05365197
0000e0 6b da b5 3e 20 c0 e5 3e 83 6c c4 3e 93 bf 7b 3e
       0.35518202 0.44873142 0.38364038 0.24584799
0000f0 b9 79 31 3e d3 dd 5f bf 3f 2c c9 be 5f e8 df 3d
       0.1733159 -0.8744785 -0.3929157 0.10932993
000100 d1 1c 04 3e 88 28 50 3c 86 bb 13 3f 9d 47 67 bc
       0.12901618 0.012704976 0.57708013 -0.014116195
000110 74 27 3b 3e 58 29 53 3d bc 77 90 bc fc 55 57 3e
       0.18276769 0.0515531 -0.017635219 0.21028894
000120 20 16 15 3e 22 91 4e bd 50 39 10 c0 61 2a 8e 3e
       0.14559221 -0.05043138 -2.253498 0.27766708
000130 14 21 02 bd 50 cb e1 3b 10 6f 9e 3d 97 a5 1d be
       -0.031769827 0.006890692 0.07736027 -0.15395199
000140 e0 2c 39 3c a3 3f 9c 3e 44 ee 45 3e e6 fb 90 3d
       0.011302203 0.305173 0.19329172 0.07079296
000150 6e 26 c2 be db e8 df 3d 12 5d e8 bd 36 1d 7e be
       -0.37919945 0.109330855 -0.11345877 -0.2481583
000160 76 88 7a 3e cc f3 68 3d 9a 69 0f 3d ca dc 96 bd
       0.24466118 0.056873128 0.03501282 -0.07366331
000170 85 c6 07 3e 45 7b 60 bd 3c e2 7f be 36 62 02 3c
       0.13259323 -0.05480506 -0.24988645 0.007957986
000180 26 aa a6 3d 2f 9e a8 bc 55 a9 c7 bd f6 6d 8e 3d
       0.08137922 -0.02058324 -0.097490944 0.06954567
000190 0c b0 e8 bd b9 0d 23 3e 46 de a7 bd c1 c1 ab 3e
       -0.11361703 0.15923204 -0.08196692 0.3354626
0001a0 44 95 30 be ae 91 7d 3e 50 af 99 3c 18 9f f3 bd
       -0.1724444 0.24762604 0.018760353 -0.11895579
0001b0 1d 2b 80 be df 36 02 be da 6e 8a be 7b 3f 81 be
       -0.25032893 -0.12716244 -0.27037698 -0.25243744
0001c0 64 59 60 3e f8 97 16 be a4 d2 8c 3d 1f 9f 5e be
       0.219091 -0.14706409 0.06876114 -0.21740387
0001d0 4a c1 53 be 46 2c 86 3d 9b fb 82 3e 31 52 9d be
       -0.20679203 0.06551413 0.25582585 -0.3072677
0001e0 09 51 ac bd fb 0a 0f 3e 3e d6 89 3e bb 07 04 bf
       -0.08413894 0.13969032 0.26921266 -0.51574296
0001f0 ca 2a 86 3d af 9a 33 be 3f 21 28 bf e9 ac 74 bf
       0.0655113 -0.17539476 -0.6567573 -0.9557634
000200 9d c6 c7 bd 7f 1e 04 bf cb e7 03 bd fb 9e 06 3d
       -0.09754679 -0.51609033 -0.032203477 0.03286646
000210 ab b1 0f 3e 1b ec e9 be d8 34 a1 3e 96 c1 86 3c
       0.14032619 -0.45687947 0.3148563 0.01644973
000220 55 e4 d2 bd 71 75 90 bc ce 75 9c 3e 28 82 3d be
       -0.10297457 -0.017634125 0.30558628 -0.18506682
000230 61 15 5f 3d df f3 3a be 14 bf f5 3d f3 d4 57 3e
       0.054463748 -0.18257092 0.11999336 0.21077327
000240 58 0c 99 bd 6b fc e0 bd d8 4f 2b 3e f7 a6 15 3e
       -0.074730575 -0.10985645 0.16729677 0.14614473
000250 91 34 0b be 47 03 51 be 0a 85 ab 3e 2c da 06 3e
       -0.13594271 -0.20411406 0.33499938 0.13169163
000260 88 1b d5 3e 81 06 9e 3d 00 2c 84 be 7e cb 7d 3b
       0.41622567 0.07716084 -0.2581482 0.0038726027
000270 f9 c7 83 3e b5 7b 47 3d 1e 2b 6e 3e 00 bc 28 3f
       0.25738505 0.04870196 0.23258635 0.65911865
000280 f4 a8 36 3e b9 95 6d be 8d 69 cc 3d b1 80 b1 3e
       0.17837888 -0.23201646 0.0998107 0.34668496
000290 d6 7c 42 be 45 c5 c7 3e e7 f2 07 3e 84 f7 11 be
       -0.18992934 0.39017692 0.13276254 -0.14254576
0002a0 50 18 0a bf be b3 46 3c ec 64 a6 3b 56 d3 2e 3c
       -0.5394335 0.012127815 0.005077949 0.010670504
0002b0 47 2f d7 3d 81 dd b2 3b db 33 17 bc c4 e6 49 bc
       0.10507064 0.005458534 -0.009228672 -0.012323085
0002c0 1b c4 fb 3b c1 a6 2a bd f7 c1 bd 3d 2f c1 32 3c
       0.0076832897 -0.041662935 0.092655115 0.010910316
0002d0 dd ed aa bd 9a b3 f2 3a cb dd 53 3d 94 26 ee bd
       -0.0834615 0.001851666 0.05172519 -0.11628452
0002e0 c5 9a 39 be 91 e3 10 bf 92 d9 51 bd 4f cc c8 be
       -0.18125446 -0.5659724 -0.05123288 -0.39218375
0002f0 11 75 0c 3e d5 64 41 3e c8 4f d4 3e 1f a3 bd 3e
       0.13716532 0.1888612 0.41467118 0.37038514
000300 5a c6 59 be f7 56 4a 3e 97 02 d3 3d b0 e3 ec bc
       -0.21267071 0.19759737 0.10303228 -0.028917164
000310 b8 0f ec be 02 0c d4 bb 1f d3 e9 bd 66 4e ac be
       -0.46105742 -0.006471158 -0.11417221 -0.33653563
000320 23 0d 8a 3d 8c 4b 41 3e 51 c1 3d 3e 0c f7 15 3e
       0.06740787 0.18876475 0.18530776 0.14645022
000330 4a b2 59 be f2 4b e6 3e 53 f6 2e 3e f4 0c 9c 3d
       -0.21259418 0.44979817 0.17086153 0.07619658
000340 5c 29 3c 3e 32 69 3e 3e c1 e4 66 3d a9 fa 2f 3d
       0.18375152 0.18594816 0.0563705 0.042963658
000350 23 b5 58 bc d5 0e a0 3d 4e fe 0d 3d c5 5f 0a bf
       -0.01322678 0.07815329 0.034666352 -0.5405238
000360 f0 2f d2 3d 05 71 0c be af ca 0f be 69 e6 b5 bd
       0.102630496 -0.13714989 -0.14042161 -0.08881838
000370 a4 64 a0 3d de a7 1d 3d 67 ec 45 bb 4a 8b e0 bb
       0.07831696 0.03849017 -0.0030200721 -0.006852542
000380 55 cf c9 3c bd 62 08 be 91 d3 1d be 1f 17 2e bd
       0.024634996 -0.13318916 -0.15412737 -0.04250252
000390 14 f0 19 3e 5b de d0 bd 93 3d 21 3e 2f e8 72 bd
       0.15032989 -0.10198661 0.15746145 -0.05930346
0003a0 7b bf 84 3d 68 83 8e 3b 78 c7 b1 3e 41 5d 13 3e
       0.064818345 0.004349161 0.34722495 0.14391042
0003b0 48 e7 8e 3d c9 6e f1 be b1 fe a2 3d 5b 63 4f be
       0.06977707 -0.47154835 0.07958735 -0.20252745
0003c0 be 86 95 be a8 17 f0 bd 09 82 83 3e 5b 48 44 3e
       -0.29204363 -0.11723262 0.25685146 0.19168226
0003d0 87 1b 09 be 08 47 a2 3e 30 7a 90 bd 44 ff 83 be
       -0.13389407 0.31694818 -0.070545554 -0.2578069
0003e0 6b 76 fc 3d 3d f0 eb bd 5f 1a 98 3e c9 9c e8 3d
       0.12327274 -0.11520431 0.2970762 0.113580294
0003f0 a8 81 db bd 95 2f 9d 3e 20 3c 43 3c 9c 45 72 3e
       -0.10718089 0.30700365 0.01191619 0.23659366

hidden.bias f4 [78]
000000 77 89 d7 be 64 ec 3f 3f f0 bc 9a 3f fc 79 fb be
       -0.42097065 0.7497008 1.2088909 -0.49116504
000010 91 72 14 3f cd db 11 3f 33 75 32 3f 6b b1 56 bf
       0.57987314 0.56976014 0.6971008 -0.8386447
000020 d3 f5 88 3e fd 6a 48 3f 16 22 b4 3f bb 7c a0 3d
       0.2675005 0.7828825 1.4072902 0.078362904
000030 10 e5 c2 3e d2 92 32 40 65 83 16 bf 58 d6 9f 3e
       0.38065386 2.7902112 -0.5879424 0.3121822
000040 38 62 80 bd f5 0b 1c 40 58 aa e9 be 83 92 8f 3e
       -0.06268734 2.4382298 -0.45637774 0.28041467
000050 38 97 27 bd 89 ba 17 bf 79 f7 99 bf d1 4c 80 3f
       -0.040915698 -0.59269005 -1.2028648 1.0023443
000060 81 7d 69 c0 4c 58 3d be aa 6c bb 3f 21 60 5f 3f
       -3.6482852 -0.18490714 1.4642537 0.87256056
000070 72 7b 8f 3f 40 48 23 bf 26 74 50 3f 1f d0 8e 3e
       1.1209548 -0.6378212 0.8142723 0.2789316
000080 72 4f 05 40 4f 2b 44 3f 27 74 fd bf 00 c6 08 3f
       2.082974 0.76628584 -1.9801072 0.53427124
000090 a1 b9 83 bf 6f 13 a7 3e af 26 07 3f cf 7d 02 40
       -1.0291024 0.32632014 0.527934 2.0389287
0000a0 61 ba 9c 3e ba 51 81 3f 03 7f 08 c0 91 65 c9 3d
       0.30610946 1.0103066 -2.1327522 0.098338254
0000b0 af 76 3e 3f 7f 3f 12 40 40 4a ef 3b 5b dc f5 3e
       0.74399847 2.2851255 0.0073025525 0.4801968
0000c0 98 a5 49 be e0 e4 2e bd cd c0 24 3f 78 4a 86 bc
       -0.19692075 -0.04269874 0.6435669 -0.016392931
0000d0 a2 17 ea be 46 3e 36 3f 56 c0 d7 be 28 ea 1b c0
       -0.45721155 0.7118877 -0.42138928 -2.4361668
0000e0 ac a2 89 bf 5e b3 93 3e da a6 01 3f 3b 83 87 be
       -1.0752769 0.28847784 0.5064522 -0.26467308
0000f0 8e fb 39 3d 6f 19 04 40 fb 21 67 3e f7 cd b0 3f
       0.045405917 2.0640523 0.22571556 1.3812855
000100 8c 97 5f 3e 9f 5c 42 3e a8 05 3d 3f 12 46 08 be
       0.21835154 0.18980645 0.73836756 -0.1330798
000110 d8 fc dc bf 0a b0 9d bf 52 5e 11 3f c2 f8 cf be
       -1.7264662 -1.2319348 0.56784546 -0.40619475
000120 c9 cf 37 3e f0 6c 97 3e de fb 43 3e 8b b5 c5 bf
       0.17950357 0.295753 0.19139048 -1.5446028
000130 23 a8 ec 3c 3c c4 04 40
       0.028888768 2.0744772

out.weight f4 [1, 78]
000000 9f 52 c0 3c 9c 28 b5 be 60 35 fd 3e 75 90 a7 3e
       0.023476897 -0.35382545 0.49454784 0.327274
000010 ff a6 31 be 6f 39 00 3f b7 02 4e bf bb c7 28 bf
       -0.1734886 0.50087637 -0.8047289 -0.65929765
000020 23 9e 8b 3d 0c 67 a2 c0 1e 08 0e 3f d9 ce 33 be
       0.068172716 -5.075079 0.55481136 -0.17559375
000030 a7 d1 ee 3e 6d d7 c8 bf b1 eb c4 3e c2 73 00 3f
       0.46644327 -1.5690743 0.38461068 0.5017663
000040 b7 86 0b bf e7 3f 75 bf 81 95 e7 3e 25 f6 90 be
       -0.54502434 -0.9580063 0.4523125 -0.28312793
000050 54 de 89 bc 91 fe a3 be b3 1e 25 3f bd fc 71 bf
       -0.016829647 -0.32030156 0.6449997 -0.94526273
000060 d8 0f 9c 40 d3 55 d3 3e 5b e7 55 bf 76 30 b8 bf
       4.876934 0.41276416 -0.83556145 -1.4389789
000070 6f 70 3a bf f9 30 08 3f 4f 9c aa be 84 cc 06 be
       -0.7282781 0.53199726 -0.3332238 -0.13163954
000080 b6 c5 07 3f ab 26 25 bf ce 49 61 3f 85 be 12 3f
       0.5303606 -0.6451213 0.8800324 0.5732196
000090 c1 40 fe be df 95 92 be ca a7 08 bf cf 67 1e bf
       -0.49658778 -0.28629968 -0.53381026 -0.6187715
0000a0 03 ee 35 c0 2e f3 7a bf e3 7e a7 3f 50 72 29 bf
       -2.842652 -0.9802731 1.3085598 -0.6619005
0000b0 6a c2 f0 be 6b 5b 1d bf 2f 75 b2 bd 84 c6 80 be
       -0.47023326 -0.6146762 -0.08713757 -0.25151455
0000c0 bd bc 0a 3f c0 60 b9 3f 82 aa 5f be 89 f1 c0 be
       0.5419424 1.4482651 -0.21842387 -0.37684277
0000d0 9e 53 46 3f 1b 1a 49 bf af 67 09 3f 87 11 cb 3f
       0.7747134 -0.7855546 0.53673834 1.5864724
0000e0 b4 5a 1a 3f 39 bd 5d bf 73 93 07 bf 93 25 0c 3f
       0.6029465 -0.86616856 -0.52959365 0.54744834
0000f0 6d 44 23 bf 95 c8 b5 3f 2d 1d 03 bf 72 1b fa 3e
       -0.63776284 1.4201838 -0.51216394 0.48849064
000100 80 a8 93 bc 8f 49 14 bf 8a d5 bf bd 0e f8 f4 3e
       -0.018024683 -0.5792474 -0.09366901 0.478455
000110 1c e2 03 bf af e2 cf 3e 14 78 f5 be b9 07 7b 3e
       -0.5151689 0.40602633 -0.47943175 0.24514665
000120 7e f0 e8 be 67 39 95 be 1d e8 98 bf 46 16 81 3f
       -0.4549598 -0.29145357 -1.1945835 1.0084922
000130 b3 ee 0b 3d c4 fc ef be
       0.03416319 -0.46872532
