project3/AdultCensusIncomeNet.pt (torch, 6445 bytes, 3 tensors)

hidden.weight f4 [78, 13]
00000000: 02d5 7e3e 1b83 863d 5512 9ebd c0c5 6ebe
00000010: 51b5 b73d 80eb 42be 5d24 b23d 49bb 873e
00000020: e80e 5cbe 2bb1 47be 35dc d7bd 5981 593d
00000030: b512 6cbe 01d1 e2bd 6ac3 3e3e 07d5 6b3c
00000040: 01a4 c93e 6d17 c4bd 1a0f dbbd ef8f d5bd
00000050: 3acf 723e 8544 34be b9f4 4abd f787 6cbe
00000060: 6685 bb3c fec6 63bd f318 74be fd89 0ebd
00000070: f42e 34be ecfb 27be c542 a7bd a4c0 5a3d
00000080: 74fc 693e 0ff3 3d3e b50a c9bd 5b2b 713d
00000090: 7037 1a3d 97d2 05be 34d5 94bd d146 73bd
000000a0: 77e9 a23d 849a 0fbd 8951 9ebe 554b 7b3e
000000b0: 67ea 27be e812 783e ea84 e9bc 3a03 d13d
000000c0: d459 ccbd 2878 2c3e 4c28 5fbe efaa 333e
000000d0: a484 55be c2f0 95be 51f1 fd3d 1b5a aabd
000000e0: 3f14 483e 2a71 d73d 5ec1 853e d5eb 353d
000000f0: e6b6 aabe 62ee 2d3e bd1b ca3e e315 94bd
00000100: 17ab 2d3d 1907 43be 08cf 30be df2b 24be
00000110: 54b3 5b3e 2a96 b2bd a956 eebc b041 8ebe
00000120: 747b 82bd 185b f1bd a157 09be 707d b33c
00000130: 2fb5 243e 293e 33be 543b a93e 43ee 0b3e
00000140: 9273 1c3e 7416 3ebe dc9c 623e 63fd d2bd
00000150: fc66 8dbe 7511 0f3e 5d17 d03d 1086 88be
00000160: 50e1 383e b813 7f3e 13c5 9f3e d55d a43e
00000170: ec8e 833e c840 26be a390 e8bd bee5 30be
00000180: 04a7 fdbd f629 babd 1d54 233e e1c3 013e
00000190: bac5 13bd b994 f43d b5e1 8a3d c1f8 4bbe
000001a0: 19ce 833e d55f 473c d31b 56bd 13fa 463e
000001b0: f3c3 073e 26ea 98be d2eb 87bd 8698 8dbe
000001c0: 7185 1dbe a236 863d 4be0 183e cb4d 593e
000001d0: 8973 b33d 31f9 74be 727b b0bd 8006 103c
000001e0: 082a 98bd 7669 5abe e1a3 883e ead4 193e
000001f0: eac1 50be 1cf2 51bd 2015 6d3d e17a 8bbe
00000200: 846e 53be 3483 01be 7bd2 0bbe c2c5 ab3d
00000210: 754b 203e 1c17 323d 5f63 a1be 29cd 08be
00000220: c6a2 95be 3e8f f33d 31be b53c d027 8cbe
00000230: 67e8 193d d5b2 28be 64c2 8f3e d53c b5bd
00000240: 13bd 493e 22fb 47be 5434 97bd a535 083e
00000250: b3e2 fb3d cf55 b73d 7bf8 2fbe 39d7 bfbd
00000260: 16d6 6cbe d1cd 66bd 3d88 a7be 1208 29be
00000270: b97f 4d3e 7e98 3cba e7f2 c3bd a699 a03e
00000280: 8bce 07be a099 cd3d ea41 853d 2894 44be
00000290: ca64 8ebe 5e75 4abd 6b45 4e3e 6d13 2c3c
000002a0: 0700 bc3d d32b 77be 5bca debd c2ae 69bc
000002b0: 024f 063e 0d20 bbba b8a7 033e 0e79 333e
000002c0: 9ad9 9d3e 16f6 4d3e 3b39 70bd eed9 7abe
000002d0: 3892 ebbd b6bb 9c3e f39d 703e e54f b9bd
000002e0: bdd1 b9be 7b98 4abe eb3f 91bd 81c2 f1bd
000002f0: 2af3 c2bd 106b 873c eb41 2bbe fd3b fe3d
00000300: eeb4 e93c a233 043e db1e 56be b7ca 63be
00000310: 9b8c 093d fdd1 933e 26e8 283e 6aaf 843e
00000320: b948 14be 8975 2e3e 7df9 7d3d 467f 6fbe
00000330: 573c 433e 48c6 a73d 2409 d03d dee5 d0bd
00000340: 2bdf 8b3e 71ce 3d3e b0c4 473e 3414 483e
00000350: 7e4b f53c 3b16 69bd bc2a 853e f432 0d3e
00000360: 638d 88be 075c 803e 7d3b 773e 93bb 123d
00000370: c558 463e a1d4 fcbd 371e 533e 8b7f af3c
00000380: 4cdd 35be c3d2 e33d eea0 5b3b dab6 73bb
00000390: a076 88be 8681 76be fd50 693d e276 81be
000003a0: 4217 183e 80e4 103e 0093 0b3e a8b6 57bd
000003b0: 5010 2fbe e2a1 2a3e 12b4 c7bd 708b e1bc
000003c0: 5e7c 83bc 751b 84bd 545b cebe 1e33 9dbd
000003d0: 8ef4 a13d fe0d 613e bfac 18bc 54f6 04be
000003e0: f15a 99be d1f8 32be d1dd 8b3e b65c 62be
000003f0: a8f4 8dbe 5e90 123e af95 a3be f656 1b3d
0.24885944 0.06567975 -0.0771834 -0.23317623 0.0897013 -0.19035149 0.08698342 0.26510075
-0.21490061 -0.19501178 -0.10540048 0.05310187 -0.23054011 -0.110750206 0.18629232 0.014394051
0.39382938 -0.095747806 -0.1069624 -0.10427844 0.23711863 -0.17604263 -0.049549792 -0.23098741
0.022890758 -0.055609696 -0.23837642 -0.034799565 -0.17596036 -0.16404694 -0.08167032 0.053406373
0.2285021 0.18549751 -0.09816495 0.058879238 0.037650526 -0.13068615 -0.07267228 -0.059393708
0.07954686 -0.035059467 -0.3092158 0.24540456 -0.16398011 0.24225962 -0.028505761 0.102056935
-0.09978071 0.16842711 -0.21792716 0.17545675 -0.2085138 -0.29285246 0.12399543 -0.083179675
0.19538973 0.10519631 0.2612409 0.04441436 -0.33342665 0.16985467 0.39474288 -0.07230737
0.042399492 -0.19045676 -0.17266476 -0.1603236 0.21455127 -0.08720048 -0.029094057 -0.2778449
-0.06371203 -0.11784953 -0.13412334 0.0219104 0.16084741 -0.17504181 0.33053076 0.13665108
0.15278462 -0.18563253 0.2213015 -0.10302236 -0.27617633 0.13971503 0.10160706 -0.26664782
0.180547 0.24909866 0.31205043 0.32102838 0.25694978 -0.1623565 -0.11355712 -0.1727514
-0.12385371 -0.09090035 0.15950055 0.12672378 -0.03607724 0.11942429 0.067813314 -0.19919111
0.25743178 0.012168844 -0.05227263 0.19431333 0.13258342 -0.2986614 -0.06636776 -0.2765543
-0.15382935 0.06553389 0.14929311 0.21221082 0.08762271 -0.23923184 -0.08617295 0.008790612
-0.07429892 -0.21329293 0.2668753 0.15022627 -0.20386472 -0.051256284 0.057881474 -0.27242187
-0.20647627 -0.12647706 -0.1365451 0.08387329 0.15653785 0.04347907 -0.31521127 -0.13359512
-0.2922575 0.11892556 0.022185417 -0.27374125 0.03757515 -0.16474469 0.28077996 -0.088494934
0.19701032 -0.19529393 -0.07383028 0.13301714 0.12299099 0.089519136 -0.17184632 -0.09367222
-0.23128542 -0.056348626 -0.3272113 -0.16506985 0.20068254 -0.0007194354 -0.09567814 0.31367224
-0.13262384 0.10039067 0.06506713 -0.19197142 -0.2781127 -0.049428336 0.20143668 0.010502678
0.09179693 -0.24137811 -0.1087844 -0.014262857 0.13116077 -0.001427652 0.12856948 0.17526647
0.3083008 0.20113406 -0.05864833 -0.24497196 -0.115024984 0.30611962 0.23497753 -0.09048442
-0.3629283 -0.19784729 -0.070922695 -0.11804677 -0.09519036 0.016530544 -0.16724364 0.124137856
0.028528657 0.12910321 -0.20910208 -0.22245298 0.033581357 0.28871146 0.16494808 0.2591508
-0.14480866 0.17037024 0.06200551 -0.23388395 0.19065987 0.08192116 0.101579934 -0.10200094
0.273187 0.18535782 0.19508624 0.19538957 0.029943224 -0.056905966 0.26009166 0.13788968
-0.2667037 0.2507021 0.24143787 0.035823416 0.193698 -0.12345243 0.20616995 0.021423122
-0.177602 0.11124184 0.003351267 -0.0037187845 -0.26653004 -0.24072847 0.056962002 -0.25286013
0.14852622 0.14149666 0.13630295 -0.05266443 -0.17096066 0.16663316 -0.097511426 -0.02753231
-0.016050514 -0.064505495 -0.40304053 -0.076757655 0.07907973 0.21977994 -0.00931853 -0.12984592
-0.29952195 -0.17477728 0.2731767 -0.22105679 -0.2772572 0.14312884 -0.31950137 0.03792473

hidden.bias f4 [78]
00000000: 23be acbc b065 17bd c76e 2e3e f9f3 5cbd
00000010: ccc7 173d 0243 76be 60de a2be 66e4 79be
00000020: 1a45 f33d 4823 d1bd ffab 36be 7689 bd3c
00000030: 1289 43bd c41e 9a3e e7cf 5ebb b4af 733e
00000040: 7f9f 89be 6771 113c a51d 053e 5c75 a83e
00000050: 0feb b3bd e7ee 8d3e 2cce 3b3e 2a8c 1a3e
00000060: 639b 343c 158a 023e 08a7 c2bd ecec fdbd
00000070: 0e88 1fbe aa78 b03e c374 e73c 08df 633e
00000080: 5aba d23c ec50 8fbe fb3b 503d 0afb cfbe
00000090: 2de0 3b3d 8e0b 703e da46 083e e464 4ebd
000000a0: 0f75 e53d 3ec1 e13d 3f6b 863e 04c2 003e
000000b0: 9ef4 9bbd 17ee 793e 8eb6 f8bd cd1b 14be
000000c0: 83dd 923e 6988 313e 1e1b 94bc de63 9b3d
000000d0: b7fa cf3e a1ce 00be c48b 883d 2dad 84be
000000e0: f967 ec3d c21a cbbe f990 b0be 591e 88bd
000000f0: 8640 48be c66f 623e b891 f83d 78d0 5dbe
00000100: d1e2 df3e 6476 863c 9718 9dbd ea0f 92bc
00000110: 4281 c43d 8155 bcbe e1b6 84be aaf1 afbd
00000120: 9075 023c ba5c e43d 2122 0f3e 7caa c63d
00000130: 2e71 563e 3f82 883d
-0.021086758 -0.03696221 0.17034446 -0.053943608 0.037055776 -0.24048999 -0.31810284 -0.24403533
0.118784145 -0.102118075 -0.17839049 0.023136836 -0.047738142 0.30101597 -0.0033998431 0.23797494
-0.26879498 0.008877135 0.1299959 0.32902038 -0.08785068 0.2772133 0.18340367 0.15092531
0.011023375 0.12747987 -0.09504515 -0.12398705 -0.15579244 0.3446706 0.028253919 0.22253048
0.025723625 -0.27991426 0.05083845 -0.40621215 0.045868088 0.23441908 0.13308278 -0.050389186
0.11203968 0.11023186 0.26253697 0.12574011 -0.076150164 0.2440723 -0.121441945 -0.1446373
0.28684625 0.17337193 -0.018079337 0.075874075 0.40620968 -0.12578823 0.06667283 -0.25913373
0.11543269 -0.39668852 -0.34485605 -0.06646413 -0.19555864 0.2211295 0.12137169 -0.21661556
0.43727735 0.016413875 -0.07670706 -0.017829854 0.095949665 -0.36783984 -0.25920776 -0.08591016
0.007962599 0.11150499 0.13977863 0.09700486 0.20941612 0.066654675

out.weight f4 [1, 78]
00000000: abd4 b9bd 0713 92be 8ea8 6b3d bcf7 c9bd
00000010: 9dbf 1c3e 32ae 9e3d f86c 533d f2ae 6bbd
00000020: 2ff0 41be a074 843b c056 bf3d 3740 efbd
00000030: 0190 24be 37c8 85bd 1c43 8bbe 1ac0 8ebd
00000040: e0b3 a03d 0694 2cbe b2a8 87be 7069 89be
00000050: c98d 6d3e 9609 5b3d 2514 3abe ee73 bb3c
00000060: f9f9 073e aae6 6abd ba17 2a3d 3c90 2dbe
00000070: b894 32bd 8f15 f2bc af87 ffbd 9ff2 c0bd
00000080: f9a0 103e ad00 643d c058 58bd 6b3f 3c3e
00000090: ab07 c03d 6d49 3abe ea64 0cbd eb9f 223e
000000a0: d119 2f3e 11bf 27be b9b3 1dbe bbb7 b4bd
000000b0: 3f8c 5e3d 1bd2 19be 4997 033e 4123 3c3e
000000c0: f1ed 2dbe ee42 54be 4824 133e 644a 1a3d
000000d0: e439 16be 32a2 8fbd fa3c 65bd 672f fd3d
000000e0: 4bdf 9a3d 24a4 833d c636 073d 9085 743d
000000f0: 7ed4 15bd fd23 6fbe 5286 2ebe f720 d33b
00000100: 02da 5cbe 0e2b c53d fceb 2ebe 2c13 f53d
00000110: 08a6 cd3c 54f2 e63d 6d3a af3d 2f3b 323d
00000120: 98ab c6bd 6c4c 83be ab41 13be 3520 88bd
00000130: 089e d0bd e7ed 0c3e
-0.09073766 -0.28530142 0.057533793 -0.09861705 0.1530747 0.07748069 0.051617593 -0.057539888
-0.18939279 0.004042223 0.09342718 -0.1168217 -0.16070558 -0.065323286 -0.27199638 -0.06970234
0.078468084 -0.16853341 -0.26495892 -0.26838255 0.23198618 0.05347594 -0.18171747 0.022882428
0.13278951 -0.057348885 0.041526534 -0.16949552 -0.04359886 -0.029551296 -0.124770515 -0.09421276
0.14123906 0.055664707 -0.052819014 0.18383567 0.093764625 -0.18192072 -0.034275927 0.15881316
0.17099692 -0.1638148 -0.1540059 -0.08824106 0.054332968 -0.15021555 0.1285068 0.18372823
-0.16985299 -0.20728657 0.14369309 0.0376686 -0.14670521 -0.07013358 -0.055966355 0.12362557
0.07562121 0.06427792 0.03301122 0.059697688 -0.0365796 -0.23353572 -0.17043427 0.0064431387
-0.21567538 0.09627353 -0.17082208 0.11966547 0.025103584 0.11276689 0.08556066 0.043513473
-0.09700698 -0.25644243 -0.14380519 -0.06646768 -0.10186392 0.13762628
